modelo_entrenado.pth (torch, 2456 bytes, 3 tensors)

fc1.weight f4 [16, 2]
0.6937348 -0.92485094 -0.5677434 0.06949121 -0.31006542 -0.37095937 0.62153846 -0.76142156
-0.046746567 -0.9645923 0.50298715 -0.91820115 -0.10773954 0.027657023 -0.24951378 0.24870275
-0.0065649524 -0.6787927 -0.60342216 -0.10936028 -0.58131385 -0.438952 -1.2470751 1.2963618
-0.3802631 1.0476407 0.3572232 -0.60849756 0.010517025 -0.7349305 -0.18963993 0.5337216
00000000: 9b98 313f 08c3 6cbf a257 11bf 6851 8e3d
00000010: e5c0 9ebe 63ee bdbe 251d 1f3f 86ec 42bf
00000020: 5479 3fbd 85ef 76bf c4c3 003f 3b0f 6bbf
00000030: 8ca6 dcbd fb90 e23c 8a80 7fbe efab 7e3e
00000040: d01e d7bb 5cc5 2dbf e079 1abf 48f8 dfbd
00000050: fcd0 14bf 51be e0be 28a0 9fbf 2fef a53f
00000060: d8b1 c2be 1719 863f f6e5 b63e 7fc6 1bbf
00000070: 9a4f 2c3c 6824 3cbf f830 42be fba1 083f

fc1.bias f4 [16]
1.0197692 -0.30833015 -0.34398505 0.90984327 1.1808677 1.024809 0.57042176 -0.2855999
0.8158203 -0.39317834 -0.04280013 -0.00382544 0.14467944 0.686291 0.9038335 -0.6320066
00000000: cc87 823f 73dd 9dbe cf1e b0be 7deb 683f
00000010: ac26 973f f12c 833f 2907 123f 263a 92be
00000020: 99d9 503f ac4e c9be 304f 2fbd 3cb4 7abb
00000030: d926 143e c4b0 2f3f a261 673f 2fcb 21bf

fc2.weight f4 [1, 16]
-0.52524126 0.06068939 -0.11945534 -0.35679838 -0.52206504 -0.48662958 -0.2396559 -0.08564728
-0.36177164 -0.23816183 0.17697439 1.2724978 0.20910674 -1.075541 -0.4283419 0.09237626
00000000: 3676 06bf 7095 783d 00a5 f4bd 47ae b6be
00000010: 0ea6 05bf 8327 f9be 5b68 75be d767 afbd
00000020: 223a b9be b2e0 73be c638 353e 35e1 a23f
00000030: 1420 563e 54ab 89bf a14f dbbe c42f bd3d
